retinexnet/decomp.pth (torch, 835579 bytes, 14 tensors)

DecomNet.net1_conv0.weight f4 [64, 4, 9, 9]
00000000: 5eef 213d f64c 8bbc 5cfa 07bd 6e95 413d
00000010: 2241 253c 64e0 c6bc 1283 47bd 80fa 10bc
00000020: 52a9 62bd d7a8 f8bc bc2c efbc f2d3 063d
00000030: 29df feba b36e bf3c e015 b43b 3dfb 3b3d
00000040: 1f28 3abd 3d6f 0c3d af53 14bd 1644 293b
00000050: 2182 243d 86a0 32ba 71ac e4bc 77fe 5dbd
00000060: 28ad 03bd b603 3e3d b0c1 003c 20d6 cb3c
00000070: 437f df3c 2662 263d b414 17bd d1fd 54bd
00000080: 837a 153d dbeb 80bd 5c45 59bd b02b 293d
00000090: 98ff 4e3d 989f b0bb c210 5fbc c4e2 073d
000000a0: ce0d 7dbd 6566 3dbd 6d78 b03c a991 dd3c
000000b0: d63a 0fbd 78b7 013c c37f c63b d851 17bd
000000c0: 446b 4e3c a38d e6bc 8913 44bd 465a 64bd
000000d0: 824a 09bb 2eff 533d e132 3cbd 2c02 23bc
000000e0: 5a27 6cbc 6219 8cbc 9b7e 66bd 84dd 12bd
000000f0: 1dee e53c e83d 9e3c 73e6 603c 07e0 1dbd
00000100: 3db7 b5bc f06a 1ebc 98ad 873c aba7 003d
00000110: d269 05bd 374c 4c3d 0445 28bd b814 443c
00000120: 099a e83c 79e7 06bd dc7c 493d c918 523d
00000130: 9f54 ab3c 7828 b1bc 9ff9 473c cfd0 dd3c
00000140: cc01 233d c24a a83b 3cd3 1c3d 247f 0a3d
00000150: bf54 123d d79a 393d f55c 62bd 35c6 efbc
00000160: a5cf d53c 63ac 15bd 48a5 48bd 86d9 093d
00000170: 937d e5bb c756 f73c 6693 633d b0f7 1b3b
00000180: 42f6 cd3a 91e0 023d 62b8 59bd a22b c1bc
00000190: d392 1a3d 1598 b4bc 5158 6dbb 99ce 803d
000001a0: cb34 043d b1af 283d b93f 36bc 36c4 613c
000001b0: 3566 49bc 04f6 fa3c 03a4 493d 54ff 0b3d
000001c0: 26fa 58bb 5450 653d a717 c6bb b906 56bd
000001d0: 3eb6 483d e181 5abb af38 d33c 3a37 8c3c
000001e0: bfa4 50bc f640 69bd 7790 2e3d 080f efbc
000001f0: 9ed8 26bc 30fd 1cbc c773 0d3d 938a 263d
00000200: 84d4 c3ba 23f2 393d fa43 0cbd 7c87 72bd
00000210: fe17 16bd 56a3 01bd 00d1 3ebd 7949 613d
00000220: 6356 643c 4a74 00bd 0bbf 6ebd 2fca bb3c
00000230: ee29 71bd 5209 453c 5830 60bd f693 9e3b
00000240: f6c1 643d b390 7dbc e7f0 aa3b ab9e 27bd
00000250: 94f6 ebbc 3aaf 0e3d 603d 22bd 7a6b 3bbc
00000260: 3a37 d3bc eb33 04bb 09f3 d13b 750b e03c
00000270: bbef 103d dd46 ae3c f908 3fbd dce0 113b
00000280: 78de f9bc 50ee 3ebd 2a72 b33c c869 3a3a
00000290: ca83 f13c 2ff8 913b 22c3 4bbd 3147 1ebc
000002a0: 73c0 22bd f4d1 453d acfb 2f3d 9352 463b
000002b0: 07b3 e63b 54c9 3dbd a750 583d 885a 393d
000002c0: 4e76 4c3d 4de9 5c3d 4e19 f63c c48d ba3c
000002d0: e1c2 babc 967d 88bc e335 4f3d fdc3 2e3d
000002e0: 0370 6f3d 6102 1abd c49d 2ebc 423b dc3c
000002f0: 0c1c 0dbd a657 38bc 2a92 e3bb 1b0d 0dbd
00000300: a82b 5cbb b004 a53a 375e 953d a272 bb3c
00000310: f49b cf3b 64bf 223a 922e f0ba b831 1d3d
00000320: 540c 01bb 401f 61bc 7c3b 5ebd c717 f93c
00000330: a03a cabc 28a2 03bb 0dfe 1fbd 3084 003b
00000340: dea6 18bc 8a81 bbba bc0c 08bd ee6c ed3c
00000350: d42f 89bd 8dd4 9fbc 1ceb 7b3d 2654 9abc
00000360: c7bd 033d f0db 0d3d 8508 d8bc f495 29bd
00000370: 5de6 56bb ddb7 8a3c c93a cdbc fcdf 1c3c
00000380: 0710 eb3c 824f 433d e572 8dbc 6c62 6e3d
00000390: d3e3 e5bc ea1e 853c 7efa cc3c 6cea c5bc
000003a0: 5b90 1bbd 70b7 803d 0c1f 44bd 1ed5 1f3d
000003b0: 4319 32bc 7d6c 143d d4bb 3ebd eb86 0ebb
000003c0: 6a4e 393d 9fdd 18bd dba3 ffbc deff ad3c
000003d0: 85f6 3c3c 99f6 d33b 6804 6fbd 9360 08bc
000003e0: d85c 3bbd dc32 dc3c 5d4b 9d3b 9105 1e3c
000003f0: f8f7 fb3c 4210 e1bc 3e57 893c 8787 fdbc
0.03953492 -0.017004471 -0.033197746 0.047261648 0.01008633 -0.02427692 -0.048708983 -0.008848786
-0.055337258 -0.030353947 -0.029196136 0.03291697 -0.0019445169 0.023368215 0.0054957718 0.045893896
-0.04544842 0.034285773 -0.03621262 0.0025827936 0.040163163 -0.0006814081 -0.027914258 -0.054197755
-0.032147557 0.046390258 0.007858679 0.024882376 0.027282363 0.040620945 -0.03688498 -0.05199987
0.03649379 -0.06294986 -0.053044662 0.04130143 0.050536722 -0.005390119 -0.013614835 0.033175245
-0.061780743 -0.04624023 0.021541798 0.027046995 -0.03496822 0.0079172775 0.006057711 -0.036943287
0.012598816 -0.02814371 -0.047870193 -0.055750154 -0.002094895 0.05175703 -0.04594696 -0.009949248
-0.014413679 -0.017101947 -0.056273084 -0.035855785 0.028067643 0.019316629 0.013726818 -0.038543727
-0.022182101 -0.009669051 0.016562268 0.0314099 -0.03257162 0.04987737 -0.041081443 0.01196783
0.028393762 -0.032935593 0.04919134 0.05129317 0.020914374 -0.021625742 0.01220551 0.027077107
0.039796636 0.005135865 0.038287386 0.033812657 0.03572535 0.045313682 -0.055264432 -0.029269317
0.02609999 -0.036541354 -0.04898575 0.033654712 -0.007003495 0.030192746 0.055560492 0.0023798756
0.0015713649 0.031952444 -0.053154357 -0.023580376 0.03773768 -0.022045175 -0.003621597 0.062894054
0.03227691 0.041183177 -0.011123591 0.0137796905 -0.012292434 0.030634888 0.04922868 0.034179047
-0.0033108084 0.05598481 -0.0060453 -0.052252505 0.049001925 -0.0033341574 0.025783865 0.017116178
-0.012734591 -0.056946717 0.04261824 -0.029181972 -0.0101834815 -0.009581849 0.034534242 0.0406595
-0.0014940654 0.045396935 -0.034244515 -0.05921124 -0.036643974 -0.03164991 -0.046586037 0.05500171
0.013936612 -0.031360902 -0.05828766 0.022923557 -0.058877878 0.012026148 -0.054733604 0.0048394157
0.055849038 -0.0154763935 0.005216706 -0.040922802 -0.028804101 0.034835078 -0.039609313 -0.011439199
-0.02578317 -0.0020172547 0.006407146 0.027349213 0.035384875 0.021274025 -0.046639416 0.002225927
-0.03050159 -0.04661399 0.021905024 0.00071110995 0.029481787 0.0044546346 -0.04974664 -0.009660528
-0.039734315 0.04829593 0.042964622 0.003026162 0.0070403847 -0.04633458 0.05281129 0.045252353
0.04991751 0.05393343 0.030041363 0.022772677 -0.022798004 -0.016661447 0.0505885 0.042667378
0.058456432 -0.037599925 -0.010657731 0.026883725 -0.034450576 -0.011251366 -0.0069449143 -0.034436326
-0.0033595357 0.0012589898 0.07293361 0.02288181 0.0063357297 0.0006208329 -0.0018324426 0.038377494
-0.0019691186 -0.013740361 -0.054255947 0.030406846 -0.024686158 -0.0020085666 -0.03906064 0.001961004
-0.009317128 -0.0014305573 -0.03321527 0.028982606 -0.066985756 -0.019510532 0.061503515 -0.018838953
0.032163408 0.034633577 -0.02637125 -0.041402772 -0.0032791116 0.016933376 -0.025052445 0.009574886
0.028694166 0.047683246 -0.0172667 0.05819933 -0.028062737 0.016250093 0.025021788 -0.024159633
-0.037979465 0.06284988 -0.04788117 0.039021604 -0.010870281 0.036236275 -0.046565846 -0.0021747898
0.045240797 -0.03732073 -0.031206062 0.021240171 0.011533384 0.0064686057 -0.05835381 -0.008323806
-0.04574284 0.02687972 0.004800244 0.009644882 0.03075789 -0.027473573 0.016765233 -0.030948414

DecomNet.net1_conv0.bias f4 [64]
00000000: a265 8abd 47cf 203c 614e edbc 5031 883c
00000010: f63a ff3c e55b 9c3d 107b d73d 37ca c4bd
00000020: 22b9 0b3e 947c 0bbd 2e9c 26bd 6cf7 cdbd
00000030: 2f60 e5bc 3acd 7c3d 309f 52bd 30a1 a03d
00000040: e2cb 86bd c7d5 133d 4f42 a63d 9118 babd
00000050: 02f7 debd bea6 9b3d f08c a33b c537 0abd
00000060: 025e cabd c60f e2bd 6009 193d 89e3 be3d
00000070: 0528 cfbd 1a68 31bd f6ec 83bd 178f bebc
00000080: 35c8 84bd 5833 593a b03d 13be 9829 85bd
00000090: 1610 dabd cdf5 5f3d 4ee2 9bbc b5c7 29bd
000000a0: 97c6 fcbd a90e 6ebd 05c3 ab3d ef56 0f3e
000000b0: bfb1 a9bb 9ddd 0b3d e22a 20bd bdc7 123d
000000c0: d118 b0bc 7d14 d3bd 6d59 fbbd 5825 01bd
000000d0: ec97 833c 0cf9 ae3c fa76 063e 6b16 19bd
000000e0: ca95 c93c 1dc0 d8bd be02 e33c cf08 253c
000000f0: 1699 bdbd 1e25 e63b e0c3 d23d 8bba f03c
-0.06757666 0.009815044 -0.028968038 0.016625077 0.031156044 0.07634715 0.10521519 -0.09608882
0.13644841 -0.034054354 -0.04067629 -0.100569576 -0.027999965 0.061719157 -0.051421344 0.07843244
-0.06581856 0.036092546 0.08118116 -0.09086717 -0.10886957 0.07600163 0.0049911663 -0.033744592
-0.09881212 -0.11038165 0.037362456 0.09320743 -0.10115055 -0.04331217 -0.06441681 -0.02326159
-0.06483499 0.0008285544 -0.14379 -0.06502074 -0.106475994 0.054677773 -0.019028809 -0.04145022
-0.123425655 -0.05811945 0.083868064 0.13998006 -0.0051786597 0.034146894 -0.039103396 0.035835017
-0.021496208 -0.10306642 -0.12272916 -0.031529754 0.016063653 0.02135899 0.13131323 -0.037374895
0.024607558 -0.10583518 0.027711269 0.010072901 -0.092577145 0.0070234677 0.102912664 0.029385826

DecomNet.net1_convs.0.weight f4 [64, 64, 3, 3]
00000000: f727 dbbb 2d7e 963c 39e0 313d 57d8 a4bc
00000010: d527 5d3d 3280 da3c cb79 463c 953f c3bb
00000020: 9685 9a3c 8b32 f53c 3ff9 aabc 5e65 ac3c
00000030: 6663 213c a301 7ebc 6a83 94bc 13d5 703c
00000040: 2ba7 463c 9547 a3bc a491 d539 fffd 42bd
00000050: 5243 d1bc 881a 06bd 28ba 47bd ac5e 1abd
00000060: 2d9f 0abc 0bcd d2ba 5995 1fbc 2ebd 80bb
00000070: 0fc4 dbbc 2874 84bc 41db 153d 44a7 413b
00000080: ddb0 383d 1f9f f7bc 5270 093d ce07 8e3d
00000090: 92ca 403c d642 11bd d9d1 a1bc 9323 86bc
000000a0: 733b 63bc 4b70 9b3c fe47 303c f42a 10bd
000000b0: 3f71 efbc 341c 6fbc d33f aebc d7e6 96bc
000000c0: 93f3 0d3d 8e47 b2bb 35d6 73bc 37f6 003d
000000d0: c568 04bc 29a1 f5bc 3e5f b4bc 4f32 1e3d
000000e0: 8c5c 3c3c 5d25 c23c 74c0 82bc 7dc4 a93c
000000f0: be5a 91ba 6adf 1f3d 2afb 58bc 9f3c 403c
00000100: 76d0 0bbd 1dc8 43bd c6e8 d8bc 6ed0 c1bc
00000110: 1fba 91ba 396a a43c 63b5 8c3c 96aa 6b3c
00000120: 878b 133c 4bf8 f6bb 5a5a d73c 0b06 06bb
00000130: e685 943b 7a1c d9bc b8a4 0cbc 278a 36bc
00000140: c7aa ccbb bbf0 b2bc c3bc 23bd c517 893c
00000150: 035e 84bb ce5d 1b3d 4334 3f3b 8c10 363c
00000160: 55ca 043d 09b2 9b3c 533c a03c 2e36 193d
00000170: 682e c1bb 3575 7f3c 48e6 cabc 6298 9ebc
00000180: 9b03 473d 257a 003d 49c5 f2bc 6e9b f5bb
00000190: a582 d23c cf2e 8cbc c2e6 8c3c 9cfb 2e3d
000001a0: 49f8 fa3c 398e 253b 3720 3c3c c886 9b3b
000001b0: f84d 573d daa0 8e3c ae77 02bc b878 15bd
000001c0: 1780 2cbb d138 843b b542 843c 2092 36bd
000001d0: 6837 0abd 2112 953d 41ad 263a 920f 6cbd
000001e0: 1faa ba3b 7100 52bc 47fd 423c aad6 123d
000001f0: 4dff acbc 9e04 013b 3648 0cbd 7734 39bd
00000200: 03e6 cf3c ff1c fbbb 9c8f 88bc 7be4 30bd
00000210: fdb6 0cbd 4fae 563c 67ee 2a3b 5ab0 383d
00000220: b827 7d3d 9d9c 6a3d 0f2c 183d 4433 d73b
00000230: d147 673c 90c6 d03c f88f f73c d8fb 04bd
00000240: 4ce6 22bd 58ba 2c3b dcab ecbc f659 0bbd
00000250: de62 b0bc 3d2d 1e3c 3fa6 353d 16db 3b3d
00000260: b86b b03c 0f8f 683d e894 88bb 55b6 b8bd
00000270: f293 623d 5ccd 383c 9311 30bd 2219 883c
00000280: aa29 ccbc 45ae 4fbd f9de d6bc 90d0 863c
00000290: ca85 723c eafd c6bc cc97 b6bc ef20 c63c
000002a0: 3786 1bbd e426 34bd cf5d 943c a8cb 303d
000002b0: fa15 1d3d d2fe b6bc e4fe 56bc b558 f2bb
000002c0: 1a51 dabc 519f 503d eb85 253d 36dc 56bc
000002d0: 9930 dabc 4b30 40bd b3c1 69bd ebcc 3b3b
000002e0: fd9a cdbb 86a3 c2bc a241 ddbb ba7f 3cbd
000002f0: 0367 a8bc 948e 823c 2eed 10bd 7ca7 e9bc
00000300: 577e f13c 7009 e1bc 882b 663c a4ab a7bc
00000310: 2e62 fdba 76f6 f2bb afa3 8a3d ebd0 ad3c
00000320: c160 113d 4400 973c e131 fe3c dea3 8fbc
00000330: 7d71 b6bc 6a05 8abd 1af8 1bbd 942b 6b3b
00000340: f74f c23c 40e7 dd3c 3686 03bd 18b2 2b3d
00000350: 2caa 6ebc cde4 ddbc 0bec 343d 3e47 b8bc
00000360: 37b5 a8bc 00c3 9f3c cc7f c13c 2ce1 b73c
00000370: c748 9e3d 54a8 6e3c 1958 bb3b 456d 083d
00000380: 7ea7 e63c 78c4 303c 041e 4cbd db20 893c
00000390: 8d92 073d 7841 e23c 2afa a03c 1909 3dbd
000003a0: 21fc 04bd a332 82bc 3ec5 683c f987 3cbd
000003b0: 35aa 91bd 28cd 103d 0f21 af3c 4077 4ebc
000003c0: f4fa 173d 6750 933c 56c5 8abc eaf0 89bc
000003d0: 3ed6 cb3c 28a5 cabc 4f02 8e3d 7ae3 963d
000003e0: a8df cf3c 0da1 003a 4924 843d 4721 643d
000003f0: 4339 29bd 9306 8b3b 2cbf 253d c6ae debc
-0.006688114 0.018370712 0.043426726 -0.02012269 0.053993065 0.026672456 0.012113999 -0.0059585073
0.018862527 0.029931327 -0.020870803 0.02104443 0.009850359 -0.01550332 -0.01812907 0.014699238
0.012124817 -0.019931594 0.00040735037 -0.04760551 -0.025544796 -0.032740146 -0.048761517 -0.037687942
-0.008460802 -0.0016082836 -0.009740197 -0.003928802 -0.026826886 -0.016168669 0.03658605 0.002954916
0.045090545 -0.030227242 0.033554383 0.069350824 0.0117670465 -0.03546413 -0.019753383 -0.016374385
-0.013869154 0.018974444 0.010759352 -0.035197213 -0.029228805 -0.0145941265 -0.021270668 -0.01842062
0.03465612 -0.005440659 -0.014882614 0.03148481 -0.00808162 -0.029984074 -0.022018071 0.038622197
0.011496674 0.023699457 -0.01596091 0.020723576 -0.0011089665 0.039031424 -0.013243476 0.011733203
-0.03413435 -0.047798265 -0.026478183 -0.023658957 -0.001111809 0.020070182 0.017176336 0.014383933
0.009005434 -0.007536923 0.0262882 -0.002045038 0.0045325635 -0.026502836 -0.008584194 -0.0111413365
-0.006245944 -0.021843305 -0.03997494 0.016734967 -0.0040395274 0.037931256 0.0029175438 0.0111123435
0.03241952 0.019005792 0.019560015 0.037405185 -0.0058954246 0.015591909 -0.02476801 -0.019359771
0.048587423 0.031366486 -0.029635089 -0.0074953353 0.025697062 -0.017112164 0.017199878 0.042720422
0.03063597 0.0025261773 0.01148229 0.004746292 0.05256459 0.017410684 -0.007963104 -0.03649208
-0.0026321465 0.0040350934 0.01614509 -0.04457295 -0.033744246 0.072788484 0.00063582143 -0.057632037
0.0056965495 -0.012817488 0.011901206 0.03584925 -0.02111783 0.001968659 -0.034248553 -0.04521605
0.025378233 -0.0076633687 -0.01667004 -0.043186646 -0.0343542 0.013103082 0.002608204 0.045090057
0.061805457 0.057278264 0.037151393 0.0065673906 0.014116243 0.025485307 0.030220017 -0.03246674
-0.03977041 0.0026356187 -0.028890543 -0.03402134 -0.021531519 0.00965434 0.044347998 0.045863234
0.02153574 0.056777056 -0.0041681416 -0.09019152 0.055316873 0.01127943 -0.04298551 0.016613547
-0.02492221 -0.050703306 -0.026229369 0.016456872 0.014802406 -0.024290998 -0.02228918 0.024185626
-0.037969794 -0.0439824 0.018111138 0.04316297 0.038351037 -0.022338305 -0.013122294 -0.0073958286
-0.02665 0.050933186 0.040410917 -0.013114026 -0.026634501 -0.046921056 -0.05706949 0.0028656076
-0.0062745796 -0.023759615 -0.006752209 -0.046020247 -0.020556932 0.015937127 -0.035382442 -0.028522246
0.029479189 -0.02747032 0.014048465 -0.020467587 -0.0019331628 -0.0074146343 0.067695014 0.021217784
0.035492662 0.018432744 0.031029643 -0.017534193 -0.022270912 -0.06739314 -0.038078405 0.003588413
0.02371977 0.027087808 -0.032110415 0.04191789 -0.014566939 -0.02708664 0.04417042 -0.022494908
-0.020594222 0.019502163 0.023620509 0.022446238 0.07728725 0.0145665 0.005717289 0.033307333
0.028156038 0.010789029 -0.049833313 0.0167393 0.033098746 0.027619109 0.019650538 -0.046151254
-0.03246701 -0.015893286 0.014207182 -0.04602811 -0.071125425 0.035351902 0.021378068 -0.012601674
0.037104562 0.017982675 -0.0169398 -0.01683851 0.024882432 -0.024736956 0.06934034 0.073676065
0.025375202 0.0004906811 0.06452233 0.0556958 -0.041314375 0.004242727 0.04046552 -0.027182948

DecomNet.net1_convs.0.bias f4 [64]
00000000: 47bc 7dbc c2b3 6b3c 708e 51bd 65cb a73c
00000010: 2a11 963d 8d8c 4a3d 8bfe a53d b56c 5fbd
00000020: 9f49 19bd 5ffe 87bd 259d e5bc 725a c13d
00000030: 7faf 60bc af94 5c3d 6f4f 703d a7bc d83c
00000040: 0d8b febc 0ade 09bc 6475 c5bd 25c6 d5bd
00000050: 5f48 6dbd 423a 493d 22dd 5fbc cc25 0d3d
00000060: 79b6 87bd 37de acbd efd9 fabc 3b27 7dbd
00000070: 3bb3 c03b 58dc 8ebc cbe3 03bd e7be f93b
00000080: fd1c 013d 5bef 89bd 7024 94bc 00d0 b93d
00000090: 91eb 85bd 7251 e8bd a3ef b2bd a7ea a73d
000000a0: fb99 653d b03e 74bd 69a8 0dbe c1ea 0abe
000000b0: 3e68 763d 136f 28be 8f17 84bd 98bc afbc
000000c0: 78c4 82bd f119 d13c 0440 26bc bb01 573d
000000d0: d767 97bc 4b3f a9bd 1977 cebc 5c40 a0bc
000000e0: d02a 09be d6a6 db3b 4354 febb 217d eebd
000000f0: c63a dfbd 2cb2 923b d7f3 10bd 2e0c 7d3d
-0.015486783 0.014386119 -0.05116123 0.020482728 0.073274925 0.049450446 0.08105191 -0.05454703
-0.037423726 -0.06640314 -0.028029034 0.09441079 -0.0137137165 0.053852733 0.058669504 0.026457144
-0.031072164 -0.008414755 -0.09641531 -0.10438184 -0.057930347 0.049127825 -0.013663562 0.034459874
-0.06626601 -0.084408216 -0.030621497 -0.06180499 0.005880741 -0.017439052 -0.032199662 0.0076216343
0.031521786 -0.067351066 -0.018083781 0.09072876 -0.06539071 -0.113436595 -0.08737113 0.08199053
0.05605505 -0.059630096 -0.13833775 -0.13566114 0.060158007 -0.16448621 -0.06449806 -0.021452233
-0.0638513 0.025525065 -0.010147098 0.052491885 -0.018482132 -0.08264025 -0.025203275 -0.019561939
-0.13395238 0.006703238 -0.0077615096 -0.1164496 -0.10899882 0.004476806 -0.035388794 0.061779194

DecomNet.net1_convs.2.weight f4 [64, 64, 3, 3]
00000000: 8e9b 9c3a 733a 233d 8735 f6bc 3888 d33c
00000010: b6f6 783d 5fab 3a3d c8d6 163d 3b21 ee3b
00000020: 2ac1 463b f8db 7a3b 50e9 b13c f242 963c
00000030: 8e62 0b3d f524 383c 7c55 c53c 91b9 223d
00000040: 6a31 b63c b3c9 f7bc 89f6 66bc 488d 573c
00000050: 8cd1 c1bc cb7f d33a 01ae 51bd 995a 57ba
00000060: 2c32 03bd 0b18 1fbd fbc6 f0bc c26f 013c
00000070: eedf 98bc 29a1 7abc bc5c d43c 72c2 9ebc
00000080: d058 14bd 245c 05bd a2af 8d3c e1e3 4c3b
00000090: edb3 bdbc debe 1c3d 4196 7fbc 714b 073d
000000a0: cbdd 9f3c b68d 373d 95e2 dcbc ec00 86bc
000000b0: b850 3fbd 07cd aa3c 2343 fd3b 2b5a f13a
000000c0: d2a9 a03c 4d79 693c 9cc4 c63b 70ec 683c
000000d0: d249 dbbc 6f17 82bc e51f 663c 9014 9dbc
000000e0: a760 4ebc 037e 0b3d 83b8 8fbb 515f cb3a
000000f0: c817 41bc 2650 33bb 412b 303d 23fc 0abc
00000100: 07c7 41bc c3fd 0cbc d05b 1e3c edf0 47bb
00000110: 8179 22bc 078d 29bd 9498 113b 1785 a2bc
00000120: a57b 3fbd f433 8c3c f29c c7bc f97a 63bd
00000130: e3cb 083b fe15 88bc 3086 ebbc db22 8fbb
00000140: c8fa b8bc 7a10 c93b 6fc7 823c 54ec 103d
00000150: ad0b d7bc 4127 503a 2f31 70bc bc89 ccbc
00000160: 3c10 14bd c4e4 f3bc edb7 483b e5ac f7bc
00000170: 75a2 1b3d 5de2 393c 2027 5ebc 48e9 ee3a
00000180: 3020 e33c 7d23 8e3c f2ed 853d 353e 373d
00000190: 5ec5 c03c 1f70 d53c 0567 80ba 65ac 853d
000001a0: bb2d 763d 38cf b0bc 5484 38bc 7c10 663d
000001b0: 2be9 743c 9fc9 d13b 9701 043d aaa3 323d
000001c0: eb13 c9bc 5128 1d3d 4947 003c 0830 9d3b
000001d0: 4af5 83bc 2edb 3b3d e7ff 7cbc 373e 7ebc
000001e0: 4568 233d 90ac 9a3c abe0 09bc 9119 643d
000001f0: 7909 e2bc 166a 433d 92bd 663d a482 30bc
00000200: 91a5 2f3c 505f 0dbc 5049 c13c 233b 7c3c
00000210: 892f 083d 7a0a 803d a482 8a3d c59a d83c
00000220: fe9f 63bc ca69 9abd 39b6 843d 04d7 ffbc
00000230: e130 95bc 67bf e0bc 5054 e43c 331f 55bc
00000240: eaf2 983d aaa3 7f3c cdb4 bd3d f9fb 343d
00000250: 4cb5 9a3d c029 b63d 3885 c23d e6af 6e3d
00000260: 5738 8e3d b1dd 483d 801a c4bc b8ce fcbc
00000270: 174c 073d 4157 133d bf41 4bbc baf5 013d
00000280: 9773 8fbc bf76 d1bb ed03 aa3c 2d45 b5bc
00000290: 7981 fabb 1a75 2ebd 5b42 863c c613 afbb
000002a0: 2c59 523c 4387 bebc eb0f 113c af1e bfbc
000002b0: 28c2 7e3c 907b e43c cfe1 14bd edb9 1fba
000002c0: 5e3d 29bd b343 d7bb 5904 24bd f3a5 48bc
000002d0: a7ba 9d3c f959 f23b e355 4c3c 5403 1dbd
000002e0: 5ccf 88bb 5ee7 5ebc 6db9 253c 4181 01bd
000002f0: 42eb bcbc ea4e 29bd b6fb 983c c34b d93c
00000300: 3f42 bdbc 63a6 063b a1d8 393c 9382 763c
00000310: 187e 923b 5c4d 0fbd e33b 1cb9 1f0f a6bc
00000320: 41c3 db3c f511 333c 087e 183d 86e1 4b3d
00000330: 7207 46bd e5f6 4c3c 154a 1bbd e84a cb3c
00000340: b6bf 6d3b 3837 b93b b834 2e3d 54fc 0a3d
00000350: 33fe 0d3d 9484 413d a327 d1bc 4b45 c43b
00000360: 00fb 883e 7ca6 a73e ef62 a73e 3de7 de3e
00000370: a883 cc3e 42f4 c93e 2821 d33e c181 e53e
00000380: d457 ae3e a659 2bbd 0361 b3bc 3b5f d7bb
00000390: c9ff 8cbd 3109 e8bc 6a1f 0dbd e2f6 2fbd
000003a0: b916 a5bc f00f 18bd 8f39 e0bc cda7 3a3d
000003b0: de17 853c bd95 ef3c cffd 7f3c 805a cb3c
000003c0: 8c64 0abc 216f 473d ed3d d03b 19d6 263c
000003d0: 42bf 17bd a79e 24bd 38a2 51bc fd94 fabc
000003e0: 9d9a 23bd 11b6 4d3c 4578 883c 8fd8 3bbd
000003f0: 3d79 673b 5a0b af3c 8671 9e3c 698e d43c
0.0011948214 0.039850663 -0.03005482 0.02582179 0.060782157 0.04557359 0.036825925 0.007267145
0.0030327537 0.0038278084 0.021717697 0.018342469 0.034029536 0.01123928 0.024088614 0.03972775
0.02224036 -0.030247545 -0.0140968645 0.013156243 -0.02365949 0.0016136108 -0.051191334 -0.0008215099
-0.03203027 -0.03884129 -0.029391756 0.00790018 -0.018661465 -0.015297213 0.025923125 -0.019379828
-0.03621751 -0.032558575 0.017295662 0.0031263756 -0.023157084 0.038267963 -0.015599788 0.03303093
0.019514939 0.04481288 -0.026963511 -0.016357861 -0.04670784 0.020849718 0.0077289506 0.0018413713
0.019612227 0.014250112 0.006065918 0.014216527 -0.026768599 -0.015880315 0.01404569 -0.019174844
-0.012596286 0.03405572 -0.004386009 0.0015516077 -0.011785455 -0.0027361005 0.04301 -0.008482966
-0.011827237 -0.008605423 0.0096654445 -0.0030508593 -0.009916664 -0.04139426 0.0022216188 -0.019838853
-0.046748776 0.017114617 -0.02436683 -0.055537198 0.002087348 -0.01661205 -0.028750509 -0.004368169
-0.02258052 0.0061359974 0.015964238 0.03538163 -0.026250685 0.00079404196 -0.014660164 -0.02496802
-0.036148295 -0.02977217 0.0030627206 -0.03023381 0.037996728 0.011345473 -0.013559133 0.0018227482
0.02772531 0.017350907 0.06539525 0.04473706 0.023531612 0.02605444 -0.0009796327 0.06527022
0.060102206 -0.021583185 -0.011262018 0.056168064 0.01494817 0.006402209 0.03222808 0.043613113
-0.02454563 0.038368527 0.007829496 0.0047969855 -0.016108174 0.045863323 -0.015441871 -0.015517763
0.03989436 0.018881112 -0.008415381 0.055688445 -0.027592408 0.047708593 0.056333132 -0.010773335
0.010720626 -0.008628681 0.023594528 0.015394959 0.033248458 0.06251998 0.06763199 0.026440987
-0.013893126 -0.07539709 0.06480069 -0.031230457 -0.018211784 -0.027435018 0.027872235 -0.013007927
0.07468207 0.015602985 0.09263001 0.044185612 0.07554111 0.08894682 0.09498066 0.05827322
0.0694434 0.049039546 -0.023938417 -0.03086029 0.03303155 0.035971884 -0.012405812 0.031728484
-0.017511172 -0.0063923295 0.020753825 -0.022127712 -0.007644829 -0.042592146 0.016389063 -0.0053429333
0.012838643 -0.023257857 0.008853893 -0.02333006 0.01554922 0.02789095 -0.03634816 -0.0006093074
-0.04131829 -0.0065693497 -0.04004321 -0.012246597 0.019254042 0.0073959795 0.012471649 -0.038333252
-0.00417511 -0.013604967 0.01011501 -0.031617407 -0.023061398 -0.041335024 0.018674713 0.026525384
-0.023102878 0.0020545952 0.011343152 0.01504578 0.004470598 -0.034985885 -0.00014899629 -0.020270882
0.026826503 0.010929574 0.037229568 0.049775623 -0.048346944 0.012510036 -0.037912447 0.024815992
0.0036277599 0.0056523345 0.042530745 0.033932045 0.03466625 0.047245577 -0.025531596 0.0059897057
0.26753998 0.32744205 0.32692668 0.43535796 0.39944196 0.39444166 0.41236234 0.44825557
0.34051383 -0.041833542 -0.021896845 -0.0065726317 -0.06884725 -0.028324695 -0.034453787 -0.042960055
-0.020152437 -0.037124574 -0.027371196 0.045570184 0.016246732 0.029246205 0.0156244775 0.024823427
-0.008446824 0.048689965 0.0063550384 0.010182881 -0.037047632 -0.040190365 -0.012795024 -0.030588621
-0.039942373 0.012555615 0.016658911 -0.045860823 0.0035320066 0.021367718 0.019341242 0.025946813

DecomNet.net1_convs.2.bias f4 [64]
00000000: 66a2 9c3d 50a4 003c 24ab 483d 5852 7a3c
00000010: bbde fabc 3c4b 87bd 1e5b 323c 54b3 d6bd
00000020: 35aa 92bd e67b e23c dc5f 3a3d 4f5d 2c3e
00000030: 5dfa 823d 5a6d e83b 1d00 13bd e5b4 1dbc
00000040: 5355 56be 8031 253d ac17 0fbd 92ab 8ebd
00000050: 7f8f 81bd c4eb 40bd 6136 4bbd 661f 87bd
00000060: 3fda da3d e391 a23d c231 05bd f76b 86bd
00000070: 8080 46bd 7b6c 8dbd 007b 14bc b710 c33d
00000080: 9a01 d1bd ed60 30bd 609d 9abd 8b6f 43bd
00000090: 375f f43d 4dac 90bc c319 2cbc ffc1 dcbc
000000a0: c5b4 8b3d 3f9c 2cbd f2b5 01bd 031b 9ebd
000000b0: b173 28be 5d3b 163d 6009 42bd 3282 4ebd
000000c0: 9f12 313d 74ee edbc 37e7 a1bb 80b0 17bd
000000d0: f2d0 d93b 52a8 b0bc 2243 a23d c2fb 62bd
000000e0: 8563 993c bfe9 17bc 8db9 36bd b051 e33d
000000f0: 3355 b5bd 12a8 08bb ac0b f2bd f5d3 83be
0.076481625 0.007851675 0.048991337 0.015278421 -0.030623784 -0.06606147 0.010885982 -0.10483423
-0.07161371 0.02764697 0.045501575 0.1683247 0.06395409 0.007093114 -0.03588878 -0.009625648
-0.20930986 0.04033041 -0.034934685 -0.06966318 -0.06326198 -0.047099844 -0.049612407 -0.06597786
0.106861584 0.07937982 -0.032518156 -0.065635614 -0.04846239 -0.06905457 -0.009062529 0.095246725
-0.102053836 -0.043061186 -0.07549548 -0.047713798 0.11932223 -0.017660284 -0.010504189 -0.026947973
0.068215884 -0.042141195 -0.031667657 -0.07719996 -0.16450383 0.036677707 -0.047372222 -0.050417133
0.04323065 -0.029044367 -0.004940893 -0.037033558 0.0066472227 -0.021564636 0.07922961 -0.055415876
0.018724212 -0.009272038 -0.04461055 0.11099565 -0.08854141 -0.002085213 -0.118186325 -0.25747648

DecomNet.net1_convs.4.weight f4 [64, 64, 3, 3]
00000000: d5c8 f13c 3527 2d3c f09f f33c 20ca 193d
00000010: b025 6c3d 7385 a63c cfb6 0d3d fded 673d
00000020: 919f d93c ef77 76bb 610b 293d e04e 8d3c
00000030: 4320 5ebc 24cc 073d 1b24 4f3a 5721 123d
00000040: d7a7 81bc 833d bc3c 4a3a 9c3b ae34 adba
00000050: 62fe 563d 2835 0d3b 97f1 6b3c ed77 023d
00000060: 9396 da3b 9014 813d 5a2f 713d eb00 59bd
00000070: e5c0 56bd 0e3f 35bd 6205 0abd 14e9 833b
00000080: 85c6 52bd 899a 8c3c 75b8 d83c d4e7 31bc
00000090: 2393 7ebc 38d1 6dbd 3351 613c ba8b f3bc
000000a0: 4b95 cb3b 8a4a a2bd 0095 bdbc 7060 463c
000000b0: 48d0 84bd 0afa 42bd b2de 09bc 44b2 36bd
000000c0: dae4 28bd 4f22 1d3a 8762 fabc be0e b53b
000000d0: d36d 1cba a413 49bc 42cf 3cbb 5bf5 043d
000000e0: 6470 e73b ecda 923c fb99 e1bc f61e 883c
000000f0: 015f 053d de76 eebc c8f1 df3c a7da b2bc
00000100: 7fc3 5dbb 0c0c 0bbd 7d43 5f3d 30d8 e63c
00000110: 92cf 97bc e067 353d 5249 0ebc b409 f03c
00000120: c1aa 063d 4ce9 1abc 8757 63bd 5fa5 4d3c
00000130: f642 3fbd 03ec c63c 6ed2 6cba 1099 cb3c
00000140: eaa6 19bd cc8a e23c ab6c 04bd 874a 14bd
00000150: 0fe9 253c e96b 263b f2e0 07bd 5fb3 5d3c
00000160: 5ad3 fd3c 2a47 3fbd 615e 443c 2ca2 d0bc
00000170: 40f5 643a 205a e03c 78a4 243d 49a2 36bd
00000180: 519e 633c 06f8 07bd 47ca e7bc c699 cd3a
00000190: 75ae 133d 355d 87bb ccf6 59bc 0f46 703d
000001a0: 0824 623c 09c3 38bb 2c97 c23c de4e 333d
000001b0: 8bcc 20bd 488b 2dbd 0494 673c 510d 0d3d
000001c0: 5884 e4bc 2ff7 ee3b 5d2d b0bc 9bc5 0ebb
000001d0: 5a52 823c 4036 df3b d9bd f73c 41c3 2b3d
000001e0: 761b 6abd e5e1 abbc 1176 cbbc 1ca4 bebc
000001f0: e165 8fbb a327 f3bc 4ea1 80bc 0bac 0fbd
00000200: 7724 10bd 8763 91bb f4bb fbba d2f5 24bd
00000210: cf9f 90bb 7664 62bc 630c 2d3d 0399 5fbc
00000220: a274 70bc e469 0abc 2af0 eb3b b460 11bd
00000230: 95fa 3cbc b3c9 ec3c d920 feba e025 5ebd
00000240: bf42 81bd 030e 15bd 1e52 1d3d 2e4f 6bbd
00000250: 7465 83bd 4b72 873d d259 90bc d013 f5bc
00000260: 6839 ceba 5366 57bc 8fe0 28bc 574f ce3c
00000270: 3f8f d93c 95cc 753d e099 8f3c 73cc 193d
00000280: ba89 573d 98a9 1f3d 117e 783a a0ac 7f3b
00000290: 3f95 fdbc 5eee 08bd b9e7 cebc 3ec6 1f3d
000002a0: 1e97 1e3d 8052 1dbd 88f2 183d 9ab1 343b
000002b0: dd91 203d c0d6 a73d ca78 e83c 15db 963c
000002c0: 5f78 683d 3249 263d ad1b 113e a601 8a3d
000002d0: b0d2 91bd e8c3 b7bc 4ad7 8cbb 23d3 ee3b
000002e0: 999d 6a3d cf5b 00bd eb5b c3bc 562e 8b3d
000002f0: 0fed c93d cca4 19bd 3843 50bc 03c4 f23b
00000300: 08f8 3a3d 27ea b1bc d9c2 133d ac70 8b3c
00000310: 4aa8 223d 3357 f03c a6c7 27bc 8b06 ddbc
00000320: e50b 363d 74e4 c0bc 9e6a cb3c 515d 503c
00000330: a54d 32bc 74f2 8bbc f415 91bc 9c37 973c
00000340: 3947 1abd 4052 ef3c 77bc 953c e159 a4bc
00000350: 6c47 4cbc e7b2 243d f16d cbba 1a7c 13bd
00000360: 19ed 453c 62d4 ef3b 2787 883d 1e6c 5a3d
00000370: c4f8 bc3c 8fbd 8d3d 9e03 733d 7892 453d
00000380: 2764 883d fee0 5b3b ff71 bc3c 4f3e 13bd
00000390: 522f d6bc 39e1 1ebd 8dec e0ba d6c9 453d
000003a0: d3b6 183d 059d 06bd 0e00 fd3a feb8 19bd
000003b0: 618d 31bc 3dc5 033d b8d3 aebb 7b01 813b
000003c0: 9e4b f3ba 7439 933b d8cc 1cbd 2d34 73bd
000003d0: a6cb 00bd 5f62 923a 953d f2bc b75c 47bd
000003e0: 5a23 60bd 9fb6 c8bc 636c 733c 5091 0dbd
000003f0: 4c00 37bc 1a11 c5bb f1f5 44bc 1bae 90bc
0.02951471 0.01056843 0.02973935 0.037546277 0.05765313 0.020327305 0.034598168 0.056623448
0.026565345 -0.0037608107 0.041270617 0.017249525 -0.0135574965 0.033153668 0.00079018035 0.035676327
-0.015827103 0.02297855 0.004767691 -0.0013214552 0.052488692 0.0021546576 0.014400861 0.03185265
0.006670782 0.0630275 0.05888305 -0.05297939 -0.052430052 -0.044249587 -0.03369654 0.004025588
-0.051458854 0.017163532 0.026455143 -0.010858495 -0.01553801 -0.058060855 0.01375227 -0.029729713
0.0062128655 -0.079243734 -0.023142338 0.012107953 -0.06485039 -0.047601737 -0.008414911 -0.0446036
-0.041233875 0.0005994187 -0.03056456 0.005525439 -0.0005967293 -0.012272749 -0.0028810059 0.03246055
0.0070629586 0.017926656 -0.027539244 0.016616326 0.032561306 -0.029109415 0.02733697 -0.021832777
-0.0033838449 -0.033947036 0.05450772 0.028179258 -0.018531594 0.044288516 -0.008684473 0.029301502
0.032877687 -0.009455036 -0.055503394 0.012551635 -0.04669472 0.024282461 -0.0009034042 0.02485326
-0.037512697 0.027654074 -0.032330196 -0.036203887 0.010126366 0.002539391 -0.03317351 0.013531535
0.03098457 -0.046698727 0.011985392 -0.025467955 0.0008734055 0.027386725 0.040195912 -0.04458836
0.013892726 -0.033195518 -0.028294696 0.0015686087 0.036055047 -0.004130984 -0.01330347 0.058660563
0.013802536 -0.0028192422 0.023753725 0.043776385 -0.039257567 -0.042369157 0.014134411 0.034436528
-0.027895138 0.00729265 -0.021506006 -0.0021785263 0.015908409 0.006811887 0.030241894 0.041934256
-0.057155095 -0.020981738 -0.024836572 -0.023271613 -0.0043761586 -0.029681986 -0.015701916 -0.035076182
-0.035191026 -0.0044369134 -0.0019205795 -0.040273495 -0.004413582 -0.013817897 0.04224814 -0.013647321
-0.014676245 -0.008448098 0.0072002606 -0.035492614 -0.011534353 0.028904771 -0.0019388451 -0.05423534
-0.06311559 -0.036390316 0.03840839 -0.05744856 -0.06415835 0.066135965 -0.017620955 -0.029916674
-0.0015733661 -0.013146955 -0.010307445 0.025184317 0.026557563 0.060009558 0.017529428 0.037548494
0.05262158 0.038980097 0.00094792346 0.0039012805 -0.030954955 -0.03343045 -0.025256978 0.039007418
0.038718335 -0.038408756 0.03734067 0.002757168 0.039201606 0.08195257 0.02837791 0.018415013
0.05675542 0.04059715 0.14170714 0.06738596 -0.071202636 -0.022432283 -0.0042981254 0.007288353
0.057279203 -0.031337555 -0.02384754 0.06795947 0.098596685 -0.03751068 -0.012711339 0.0074086203
0.045646697 -0.021718098 0.036074493 0.0170215 0.039711274 0.029338455 -0.010240471 -0.026980659
0.044444937 -0.023546435 0.024831112 0.012717561 -0.01088277 -0.017083384 -0.017710663 0.018459134
-0.03766558 0.029214025 0.018278344 -0.020062389 -0.0124682 0.040209677 -0.0015520436 -0.036007024
0.012080454 0.007319019 0.06666403 0.053325765 0.02306784 0.06920921 0.05932962 0.048235387
0.066597275 0.0033550854 0.023003576 -0.035948094 -0.026145611 -0.038789008 -0.0017160341 0.04828819
0.03728373 -0.03286459 0.0019302384 -0.037529938 -0.01083693 0.032170523 -0.0053352974 0.003936944
-0.0018561964 0.004492933 -0.03828129 -0.05937593 -0.031444214 0.0011168233 -0.02957038 -0.048672404
-0.054721214 -0.024501143 0.014857384 -0.03456241 -0.011169504 -0.0060140016 -0.012021528 -0.017661145

DecomNet.net1_convs.4.bias f4 [64]
00000000: e062 5c3d 77d6 acbc 7953 b7bd 5ded d7bc
00000010: 0d8f 52bd efd6 88bd cf0b 86bc 2f86 8dbc
00000020: 1d9e 13bd 5c4a 8cbc ab3e 93bd c7ca a3bc
00000030: 7139 cabc 615f bebc e9e7 43bd 5c29 903d
00000040: b881 d8bc 2317 58bd 26c5 97bd 7756 9a3d
00000050: 65bf 663d d92a 38bd 5882 e93c 9295 40bd
00000060: a40f b1ba b689 2bbd a0ba 073b 902e efbd
00000070: 752e 8a3d c92b 78bd b584 ca3d e502 15bd
00000080: c0d4 433d 0dd2 febc c897 14bc a53f c03d
00000090: 0465 42bd 7490 70bc 8316 65bd 254c 7cbc
000000a0: c0db 1bbd 4631 18bc 8743 b4bc acde 5fbd
000000b0: 0211 53bd cc02 73be fbc9 863d 8474 493c
000000c0: 4260 24bd 81c5 debc f478 633c a5c1 47bd
000000d0: 88bf 99bd ebf1 643d 6058 d0bc 5ddf 30bb
000000e0: 423e ccbc 66e2 3abd 50a9 55be b51a 8b3c
000000f0: e828 db3a e7f0 e9bc 4405 1d3e 734f 54bd
0.053805232 -0.021098359 -0.08951468 -0.0263583 -0.051405955 -0.0668162 -0.016363053 -0.017275898
-0.03603946 -0.017125301 -0.07189687 -0.019994153 -0.024685593 -0.02323884 -0.04782859 0.07039139
-0.026429042 -0.05275644 -0.0741065 0.07536023 0.05633487 -0.044962738 0.028504536 -0.04701764
-0.001350869 -0.04187938 0.0020710602 -0.11678803 0.06747142 -0.06058863 0.09888593 -0.036379714
0.047810316 -0.03110602 -0.009069391 0.09387139 -0.047459617 -0.014682878 -0.055929672 -0.015399014
-0.038051367 -0.009289091 -0.022004856 -0.054655716 -0.05152989 -0.23731536 0.065814935 0.012295846
-0.04013086 -0.027193787 0.013883818 -0.04876866 -0.07507235 0.055894773 -0.025432765 -0.0026988604
-0.02493203 -0.045626067 -0.20865369 0.016980508 0.0016720565 -0.028557254 0.1533404 -0.05183358

DecomNet.net1_convs.6.weight f4 [64, 64, 3, 3]
00000000: 665d 30bd b3aa 37bb 0efe 15bc f3ac 1cbd
00000010: 9904 1c3c ee93 21bb 91e6 b43a 38b5 c1bc
00000020: c49e 59ba c335 b5bc c6e0 ca3b 51f8 473c
00000030: 0fef 343c 5068 04bd bc15 b3bc 4018 e03c
00000040: 01ae 55bc 2064 d03c 300a 5ebc 55a0 41bd
00000050: c710 533c 9730 3dbd 06b1 fb3b 7034 65bd
00000060: 24eb 543b 52e2 63bd efac 113c 17a3 9ebc
00000070: 1c15 d0bb 84e4 e63c 5d52 94bc 0707 efbb
00000080: e3fa 83bc 96c0 e8bc 7327 c43c 37d7 a8bc
00000090: 831b a9bc 8354 fcbc 767a d7bb 1350 b8bc
000000a0: f8a8 90bc 009e 1a3c 4b18 8fbc 56b3 7a3c
000000b0: b0de 0a3d 9426 9fbc 5937 b0bc 0b60 18bd
000000c0: 8a03 05bd fff2 dfbc c469 e7b9 7300 f2bc
000000d0: c595 023d b0f5 db3b 8a11 203c f214 e8bc
000000e0: d2ef 22bb 5f95 fb3c 69fc 95bc 4b6a 613c
000000f0: 8b38 c6bc 5d49 2dbd 3773 943c b988 0f3d
00000100: a1e2 06bd e641 713c 29b4 123d 300f e3b9
00000110: b482 c33c e777 b53c 8828 ac3c c0de 9bbc
00000120: 5556 12bd 1ea5 bfbc 09e5 59bd afb7 36bd
00000130: 8693 c8bb cbbb 97bd 80a8 8cbc df23 9c3b
00000140: c568 86bc a073 7e3b 0ae9 64bd 065a 44bd
00000150: 3ea4 65bd f6c2 f4bc e523 abbc d83f 22bd
00000160: 0916 dbbc 1534 ebbb ad96 583c 51a7 27bd
00000170: 7f25 80bc 97d1 093d c07a cc3a 6b71 b6bc
00000180: 5d1b 1cbd 3d42 0cbc 00a7 08bd acb6 24bd
00000190: ec3d 9fb9 06d5 a8bb cf04 14bd 0fa1 19bd
000001a0: b566 0d3d cb16 a5bb 456a 123d 8fc0 d83b
000001b0: c0e5 243d 2098 283d 8247 893c c44f 2abc
000001c0: 5646 33bc 9fbb a2bc b8e0 223d 0a89 25bd
000001d0: 4242 9fbc 09e4 c7ba 387d 47bc 729d 2bbd
000001e0: 1fa2 0d3d 6682 033d c754 6a39 9d18 edbc
000001f0: 09ab b2bc 9962 08bc 9cd0 1dbc 6af6 063d
00000200: 7095 6fbb 332d 0e3d 8069 143d e0f5 003d
00000210: c283 f73b cee9 07bd fe76 8f3c 1213 bbbc
00000220: f15f 2a3c ed4d 613c ea55 273c 4bb0 09bb
00000230: 102b 08bd 4cae bb3c 242a 80bb 3b12 6dbc
00000240: a421 813c 14ff ffbc 9617 923c 862f d5bc
00000250: c03b bc3c 3708 c93c 0151 d83c 7baf 153c
00000260: 7ba0 eebc 3636 8fbc 541c 3abd 43db 2dbd
00000270: db1f 44bd 6a6f 80bc d449 823b 520a c4bb
00000280: 87b9 a0bc 45d9 d2bc a04e 083d 0f17 c6bc
00000290: bc36 2dbc 4c6b a5bc 6155 19bb a78c 393c
000002a0: 5354 60bc f167 1bbd 9c48 ef3c f03c 693c
000002b0: f0c4 4d3c ac3b 77bc a266 f43c 2fe2 4fbc
000002c0: 68bf bb3c 825e e3bc 2c98 d8b9 9d4a 8d3c
000002d0: 6f6d 6fbd cc04 75bb c27a b4bc 7c83 14bd
000002e0: f401 a2bc 3cf0 5fbd b869 39bd 4c40 503c
000002f0: c726 83bc 56b3 1dbc ebe5 d3bb a7e7 293d
00000300: 1e56 e3bc 160d 103c 5675 2c3b 23ac 1cbd
00000310: 5e9a a9bc c309 8e3c f41e b43b 8408 f03c
00000320: ea95 b13c cf50 e63c 7ae9 5f3c 9f09 73bd
00000330: 60e0 c23c 58d6 10bc ee59 a8bc a77e 94bb
00000340: 0253 3d3c e743 12bd eb1a e7bb 88b1 0dbd
00000350: 2684 afbc bdad 993c 2cce 09bd 7fcf 0a3d
00000360: fa7e a13c dde9 253d 5b42 82bc 595a ed3c
00000370: 1506 783c d9e1 92bc cfc1 0b3d ceaa 6bbc
00000380: e5e5 1fbc 0db3 34bc 8018 09bd 271c 13bd
00000390: aee0 183d fd4f 54bc 4879 89bc 9fef 11bd
000003a0: ca14 e7bc 13c9 813c a68c 713c 1fdd 1bbc
000003b0: 03a9 acbc 4f4a 12bd 6326 7a3c 1980 00bd
000003c0: fc7b b03c f763 343d 0ac7 02bd 386b 24bc
000003d0: 16c0 133d 82d1 4e3b c89d 943c 52e1 72bc
000003e0: 8e04 ee3c ecd4 36bd cfa6 e63c 4d26 bd3c
000003f0: 829b 0f3d edeb b2bb 26d2 b6bc 662b 3dbd
-0.04305782 -0.0028025329 -0.00915481 -0.038250875 0.009522581 -0.0024654823 0.0013801624 -0.023645982
-0.0008301551 -0.022120362 0.006191346 0.012205199 0.011043324 -0.032326043 -0.02186095 0.027355313
-0.013041974 0.025438368 -0.013552234 -0.047272045 0.012882418 -0.046188917 0.007681015 -0.05595821
0.0032488788 -0.055635758 0.008891328 -0.019364877 -0.0063501727 0.028185137 -0.01810568 -0.007294539
-0.016110843 -0.028412145 0.023944592 -0.020610435 -0.020643001 -0.030802017 -0.006575878 -0.02249912
-0.017658696 0.009437084 -0.017467638 0.015301546 0.033903778 -0.019427575 -0.021510767 -0.03720097
-0.03247408 -0.02733755 -0.00044138555 -0.02954123 0.031881113 0.006712638 0.009769807 -0.0283303
-0.0024862182 0.030710874 -0.018308835 0.013758252 -0.024196884 -0.042306293 0.018121345 0.0350425
-0.032930974 0.014725184 0.035816345 -0.0004330813 0.023866035 0.0221519 0.02101542 -0.019027114
-0.035726864 -0.023394164 -0.05319694 -0.044608768 -0.006121102 -0.074088655 -0.01717019 0.0047650184
-0.01640738 0.0038826242 -0.055886306 -0.047937416 -0.056064837 -0.02987812 -0.02089114 -0.039611667
-0.026743906 -0.0071778395 0.013219518 -0.04093105 -0.01564288 0.033647146 0.0015600547 -0.022270879
-0.038112033 -0.008560714 -0.03336239 -0.040213272 -0.0003037298 -0.0051523475 -0.0361374 -0.037507113
0.034521777 -0.0050381175 0.035745878 0.0066147516 0.04025817 0.041160703 0.01675773 -0.010394994
-0.010942062 -0.019864855 0.03976509 -0.040413894 -0.019440774 -0.0015250455 -0.012175851 -0.0418982
0.03457844 0.03210678 0.00022347561 -0.0289424 -0.021810072 -0.008324289 -0.009632256 0.032949843
-0.0036557578 0.034711074 0.036233425 0.031484485 0.0075535486 -0.033181958 0.017512795 -0.022836242
0.010398851 0.013751489 0.010213355 -0.002100962 -0.033244193 0.02291026 -0.0039112736 -0.0144696785
0.015763111 -0.03124956 0.017833512 -0.026023638 0.02297771 0.02454005 0.026405813 0.009136076
-0.029129257 -0.017481904 -0.045437172 -0.042445432 -0.047881942 -0.015678126 0.003976086 -0.0059826756
-0.019619716 -0.025738368 0.033278108 -0.024180917 -0.010572132 -0.020192765 -0.0023396837 0.011325038
-0.013691979 -0.037940923 0.029209428 0.01423572 0.012559161 -0.0150899105 0.029834095 -0.012688204
0.022918418 -0.027755026 -0.00041312107 0.017247492 -0.058453973 -0.0037386892 -0.022031192 -0.036258206
-0.019776322 -0.054672465 -0.045266837 0.012710642 -0.016009701 -0.009625277 -0.0064666173 0.041480687
-0.027751025 0.008792182 0.0026315055 -0.0382501 -0.02070349 0.01733864 0.005496854 0.029300936
0.02167793 0.028114704 0.013666505 -0.059335347 0.023788631 -0.008840166 -0.020550694 -0.0045316997
0.011555435 -0.035709288 -0.0070527694 -0.034593135 -0.021425318 0.018759603 -0.033643886 0.03388929
0.019713867 0.040506233 -0.015900781 0.028973745 0.015138169 -0.017929958 0.034120377 -0.014383985
-0.009759401 -0.011029017 -0.03347063 -0.03591552 0.037323646 -0.012958524 -0.016781464 -0.03562891
-0.028208155 0.01584295 0.014743006 -0.009513169 -0.021076685 -0.035715397 0.015267941 -0.031372163
0.021543495 0.044040646 -0.0319281 -0.010035329 0.03607186 0.0031557982 0.018141642 -0.014824228
0.029054906 -0.044636652 0.028155712 0.023089552 0.035060413 -0.0054602535 -0.022317003 -0.046183966

DecomNet.net1_convs.6.bias f4 [64]
00000000: 1cd0 babc ac93 d4bc e00b e13a f9d8 07bc
00000010: 4888 d7bc 9f12 9c3c fabc 203c 0bfc f1bc
00000020: c227 1abc 71ae 6f3c b035 22be e454 6e3d
00000030: cf14 32bd 3d82 e3bc f363 34bd c335 43bd
00000040: cf53 363c 05ed 8c3d 070f ae3a 993f 393d
00000050: 7e59 3b3d c4ac 4bbd 9e57 23bd 8cc5 bc3d
00000060: b908 00bd 5894 dbbd eb4e 53bd 4f4d b23d
00000070: 00fc a73b 2e19 d03c 5fe3 c2bc 2672 763b
00000080: 8ca0 0abc a6b1 e1bc 300f e63c 9e19 eebb
00000090: fac1 913d f41f 59bd ba72 9fbc be78 ccbc
000000a0: e955 58bd 753b 93bd c9e7 56bd aa38 1ebc
000000b0: 218e 703d 1e86 47bd f3c2 7abd 59d9 e43c
000000c0: f88a 223d 5a1b 48bd 45a0 60bc d83e 5d3d
000000d0: f34d a03d c164 a5bb 0771 cbbc 02c1 9dbc
000000e0: 725f e03b d734 1cbd 82e9 1dbd f496 adbc
000000f0: f46a 953c b4e8 353d 67a3 98bc f209 0ebe
-0.022804312 -0.025949322 0.0017169677 -0.008291476 -0.026310101 0.019051848 0.0098106805 -0.029539129
-0.009408893 0.014628992 -0.15840793 0.058186427 -0.043476876 -0.027772063 -0.04404063 -0.047658693
0.01112838 0.068811454 0.0013279625 0.045226667 0.045739643 -0.04972531 -0.03987848 0.092173666
-0.03125832 -0.10721654 -0.051588934 0.08706152 0.0051264763 0.025402632 -0.02379006 0.003760466
-0.008461129 -0.02755053 0.028083414 -0.0072662374 0.07117076 -0.05300899 -0.019463886 -0.024959918
-0.052816305 -0.07189075 -0.05246714 -0.009657064 0.058729295 -0.04871189 -0.061221074 0.02793567
0.039683312 -0.04885421 -0.013710086 0.05401501 0.07827368 -0.005047411 -0.02483417 -0.019257072
0.0068473155 -0.03813633 -0.03855277 -0.021190144 0.018239476 0.044411376 -0.018632604 -0.13870981

DecomNet.net1_convs.8.weight f4 [64, 64, 3, 3]
00000000: 536f 713c 3022 ee3c b70e fb3c c3a5 583a
00000010: f517 c0bc 50c5 cbbc 4548 2e3c 4cae 043d
00000020: f198 ed3c e8d4 8abb d37c 97bc 5d59 94bc
00000030: 9a87 45bd dc2e 8c3b f233 0d3d 028f 61bd
00000040: b066 0dbd 335d 84bc 1c81 c83c 4abc 15bd
00000050: bcd8 f13c bf48 dc3c b7a1 a23c aea8 1dbc
00000060: d412 a2bc 099d cf3c d74a 8dbc 9de3 423d
00000070: a87a 9d3c de63 f0bc 5f49 4a3d e19a 2fbc
00000080: b8a6 013d b647 52bc 8c6d af3b c3ce 2a3d
00000090: 95c6 a9bc d238 07bd 4882 f73c 73d2 edbc
000000a0: 0a8a 8eba 62ca cb3b 78db e3bb a1ac 733c
000000b0: 38f0 9a3b c51b a7bc c212 e83b 9436 cd3c
000000c0: 2389 8cbc 0390 55bc 6251 8eba 0df8 80bd
000000d0: 909d a0bb f7b0 aabc 69ed 17bd 15e2 d0bc
000000e0: c4bd 073d 3b48 e1bb 32db 243c 8ba3 7a3b
000000f0: 2103 2d3d 4dd8 bb3c 90ba 143c 4936 e33c
00000100: 9fbb 94bc a6f2 513c 223d 06bd 357b f7bc
00000110: ec92 fabc fe5a 16bd c2a2 ebbc 13b3 d83c
00000120: 1939 d7bc 74e5 30bc af55 ba3c a9d8 babc
00000130: cd2b f2bc 5408 99bc 4e76 e1bc 119b 0cbc
00000140: 4dff 2e3c 38d8 c4bc 7b7e 75bc b621 1d3d
00000150: 4683 ac3c 83cd eabb aea9 79bc 9d50 823c
00000160: b878 553d 6756 83bc a12b 203d 61e3 9a3a
00000170: 1cef b7bc 665e c13c dfec 193c ab29 183c
00000180: 7177 a8bc 4c99 5dbb 8829 00bc 7072 a0bc
00000190: 1448 8d3c 6ec6 0a3b ef0c 45bc aefd 4f3d
000001a0: 1a4d bb3b c26f 3bbc 4ec2 863c 3641 0dbd
000001b0: 4eaf b8bc a8fa e0bb f8d6 4c3c 227d 1a3c
000001c0: e5c1 e63c d065 c13c 1f17 f53c 9d79 21bd
000001d0: 936b e43c b876 25bd d73f 103c 26a5 cb3b
000001e0: 15e9 c7bc 9399 cc3c 7821 c63c d711 aabc
000001f0: 119e 10bc 3b63 d03c ca81 ddba 5b07 68bd
00000200: 1b01 1bbd 16e3 8bbc 87c0 4abd 8482 a5bc
00000210: 05a7 0ebc 6a6e 92bb 65d9 bf3a f9b7 38bd
00000220: 8aee 54bd 6730 0abd 5202 12bb cea2 a93c
00000230: 4d9d e4bc 5d7e 31bd b292 d63c 9612 9c3c
00000240: 2c53 0bbd 8f6e 293d 5820 733c d9fa 273d
00000250: 9ccf 0cbd 4126 073c 9022 1d3c e882 7fbc
00000260: 098a e53b 0bb3 723d 940c 503d 66d5 5b3d
00000270: 4a26 12bb 80ff c2bb c00d 6fbc 00e2 f1bc
00000280: 8666 aebb a467 0c3d ac4c 6cbc 6a82 24bd
00000290: 904e 023d e94c 1ebd ab67 e43c be1a 9c3d
000002a0: 1734 00bc 1575 5d3d 6e45 cebc 9f4a b1bd
000002b0: f018 633c 4128 cebc 031e 5ebc 9e2a bf3d
000002c0: 0667 2cbd 6196 1e3e 3f0b 9bbd 7f7c fbbd
000002d0: d5a3 13bd 3712 233d 32c2 1dbb 1d78 1f3d
000002e0: 46a6 a33d 7791 013d 1c6e d0bc 74ad 5bbd
000002f0: 68bf 80bd 6cca 293d 3473 b53d d8e9 1fbd
00000300: 16b5 14ba 6bb0 d3bc 040e d7bc dd30 003e
00000310: ecc2 4a3d 21cd a63d 7a4c 8d3d 34d4 0a3d
00000320: 4f60 7cbc 0004 493d 8c8a 85b9 e5fc fe3c
00000330: 6557 ef3c aee9 293d 5d4a 033d 33dc f5bb
00000340: 6be4 a4bc 268c f73c fe35 803c 551d ecba
00000350: a007 a6bc 346c 3ebd 2f33 e23c ac9d 2fbd
00000360: d7c9 1f3d 4ce9 cd3c 70d5 c93c 77d5 a13c
00000370: c5e7 2ebd ac80 87bc 3afa d2bc 594b 1b3d
00000380: fbf7 a2bc e96c dabc 8a86 0f3d 5618 e73c
00000390: 7626 91bb 6dcd 0dbb 1e1e 04bd 6f9f 473c
000003a0: da44 8fbc ce86 923b 2739 ca3c f141 ac3c
000003b0: a6d6 983c a9f4 42b9 f32a 5bbc 661c b23c
000003c0: f4df 76bc 23a5 663b b398 bfbc cb65 8a3c
000003d0: 0695 743c 1e31 9c3d 33e0 aebc 80ce ed3b
000003e0: b9d0 0a3d 766c f23c 2681 88bd 2d68 073d
000003f0: c0bd f73c 034a 0ebc 242a e43c fba3 9d3c
0.014736014 0.029069036 0.030646665 0.00082644465 -0.023448924 -0.02487436 0.010637348 0.032392785
0.029003592 -0.004236806 -0.018492138 -0.018109018 -0.048225023 0.004278047 0.034473367 -0.055068024
-0.03452176 -0.016157722 0.024475627 -0.03655652 0.029522292 0.026890157 0.019852502 -0.009622736
-0.019784369 0.025343435 -0.0172476 0.04758035 0.019223526 -0.029344495 0.04938638 -0.010718078
0.031653136 -0.01283448 0.005353635 0.04170109 -0.020724574 -0.033013172 0.03021349 -0.029031014
-0.0010874879 0.0062191943 -0.006953653 0.014872701 0.0047283433 -0.020398984 0.007082314 0.025050439
-0.017155236 -0.013034823 -0.0010857994 -0.06297312 -0.0049015954 -0.020836337 -0.037091646 -0.02549843
0.03313996 -0.0068750656 0.010062026 0.0038244452 0.042239312 0.022930289 0.009077683 0.027735846
-0.018155871 0.0128142 -0.032773145 -0.030210117 -0.030587636 -0.03670787 -0.028764132 0.026452577
-0.026272343 -0.010796893 0.022745935 -0.02280839 -0.029561901 -0.018680729 -0.027522232 -0.008581893
0.010680986 -0.024028882 -0.014983769 0.038362227 0.02105869 -0.007165612 -0.015238209 0.01590758
0.05211708 -0.01603241 0.039104108 0.0011817032 -0.022452883 0.023604583 0.009394853 0.009287278
-0.020564767 -0.0033813296 -0.007822402 -0.019585818 0.017246284 0.0021175402 -0.012027009 0.050779037
0.0057159783 -0.011440219 0.016450074 -0.034486018 -0.02254453 -0.006865818 0.012502424 0.009429248
0.028168628 0.023608118 0.029918252 -0.03942262 0.027883327 -0.040396422 0.008804283 0.0062147556
-0.024403134 0.024975574 0.024185881 -0.02076046 -0.0088267485 0.025437942 -0.0016899642 -0.05664764
-0.03784285 -0.017076056 -0.049500015 -0.020203836 -0.008706813 -0.004468729 0.0014636932 -0.045097325
-0.0519853 -0.033737566 -0.0022279215 0.020707514 -0.027907038 -0.0433334 0.026192997 0.019051831
-0.034014866 0.041365203 0.014839254 0.04101071 -0.03437768 0.008248867 0.00959076 -0.015595175
0.0070049805 0.05925278 0.050793245 0.05367031 -0.0022300654 -0.005950868 -0.014590681 -0.02952671
-0.0053222803 0.034278527 -0.014422577 -0.040163435 0.031813204 -0.038647566 0.027881464 0.07622288
-0.007824919 0.054066736 -0.025179591 -0.08656811 0.013860926 -0.025165679 -0.01355696 0.093343005
-0.04209044 0.15487053 -0.075705044 -0.12279605 -0.036044914 0.039812293 -0.0024072048 0.03893291
0.079906985 0.031632867 -0.02544313 -0.053632215 -0.06286508 0.04145281 0.08859864 -0.03904137
-0.0005672736 -0.025840959 -0.0262518 0.1251864 0.0495023 0.08144594 0.06899352 0.03389378
-0.015403821 0.04907608 -0.00025470962 0.031126449 0.029216478 0.04148262 0.03205334 -0.0075030564
-0.02012845 0.030218195 0.015650745 -0.0018014113 -0.020267308 -0.04648991 0.027612297 -0.042874977
0.03901085 0.025135659 0.024637908 0.019755108 -0.0427015 -0.016540848 -0.025754083 0.037913654
-0.019893637 -0.02666326 0.035040416 0.028209846 -0.0044296337 -0.0021637336 -0.032255284 0.012184008
-0.017488886 0.0044716364 0.024685455 0.021027537 0.01865704 -0.00018592425 -0.013376939 0.021742057
-0.015068043 0.0035193644 -0.023388242 0.016894242 0.014928108 0.07626556 -0.02134714 0.0072572827
0.03389046 0.029592734 -0.06665258 0.033058334 0.030241847 -0.008684638 0.027852125 0.019243231

DecomNet.net1_convs.8.bias f4 [64]
00000000: 1c12 9d3c e74a 32bd dedc 743d 60c2 6c3d
00000010: f1b7 edbc e5b9 e9ba 0382 cbba ff6c cfbc
00000020: 7181 acbd 6e74 b43d 40d4 28bd 764e b9bc
00000030: 7ff4 8d3d 5ac0 053c f608 353c 0b7b 023e
00000040: d0c5 9f3d ef38 bfbc cfa5 5cbd 67b2 2bbd
00000050: 1dc4 95bc 503e 94bd 9751 043e 1226 5a3d
00000060: bc0c 3d3d 2b9c 4b3d 014f 673d 1df4 54bd
00000070: 0c6d 2c3d 2909 65bd fbe3 65bc f412 d3bc
00000080: 3349 693d 5c86 ba3d 74ed da3a c273 953d
00000090: 4947 55bc cd29 893d 8aff 203d 9045 d13b
000000a0: fb00 45bd b5a1 37be 75a9 ddbc 4522 063c
000000b0: a060 01bd ee7a 353b 8179 6bbd be8d 43bd
000000c0: 8c31 a13d f67c 25bd 335d 4abd 8337 853d
000000d0: 6d7e a8bd 1297 45bd 1515 c8bc f36b 47bd
000000e0: 5935 1b3c 5baa a5bd e753 bcbc 838c 15bd
000000f0: 5138 4cbc 62c3 27bd a929 0b3d 69e9 c13c
0.019173674 -0.043528464 0.059780948 0.057802558 -0.029018374 -0.001783189 -0.0015526417 -0.025320528
-0.084231265 0.0881127 -0.041218042 -0.02262042 0.069313996 0.008163536 0.0110495 0.1274225
0.078014016 -0.023342578 -0.053869065 -0.041918185 -0.01828199 -0.07238448 0.12921749 0.053258963
0.046154723 0.04970948 0.05647183 -0.051990617 0.042096183 -0.05591694 -0.014031406 -0.025765873
0.056954574 0.09107658 0.0016702847 0.0729747 -0.013017484 0.06697426 0.0393062 0.0063864663
-0.04809664 -0.1793278 -0.027058342 0.008186881 -0.03158629 0.002769168 -0.057488922 -0.047742598
0.078707784 -0.040402375 -0.049405288 0.06504729 -0.08227239 -0.048239775 -0.024424115 -0.048686933
0.009473168 -0.08089133 -0.022989227 -0.036510956 -0.012464599 -0.040957816 0.033975277 0.023670869
